…
        (0): MaskedLinear(in_features=128, out_features=128, bias=True)
        (1): MaskedLinear(in_features=128, out_features=128, bias=True)
      )
      (dropout): Dropout(p=0, inplace=False)
      (activation): ReLU()
    )
    (3): MaskedResidualBlock(
      (layers): ModuleList(
        (0): MaskedLinear(in_features=128, out_features=128, bias=True)
        (1): MaskedLinear(in_features=128, out_features=128, bias=True)
      )
      (dropout): Dropout(p=0, inplace=False)
      (activation): ReLU()
    )
    (4): ReLU()
    (5): MaskedLinear(in_features=128, out_features=288, bias=True)
  )
  (embeddings): ModuleList(
    (0): Embedding(12, 16)
    (1): Embedding(133, 16)
    (2): Embedding(11630, 16)
    (3): Embedding(2, 16)
    (4): Embedding(1409, 16)
    (5): Embedding(8, 16)
    (6): Embedding(14489, 16)
    (7): Embedding(1024, 16)
    (8): Embedding(72, 16)
    (9): Embedding(10629, 16)
    (10): Embedding(256, 16)
    (11): Embedding(8351, 16)
    (12): Embedding(16, 16)
    (13): Embedding(2, 16)
    (14): Embedding(2, 16)
    (15): Embedding(2, 16)
    (16): Embedding(1743, 16)
    (17): Embedding(2939, 16)
  )
  (unk_embeddings): ParameterList(
      (0): Parameter containing: [torch.cuda.FloatTensor of size 1x16 (GPU 0)]
      (1): Parameter containing: [torch.cuda.FloatTensor of size 1x16 (GPU 0)]
      (2): Parameter containing: [torch.cuda.FloatTensor of size 1x16 (GPU 0)]
      (3): Parameter containing: [torch.cuda.FloatTensor of size 1x16 (GPU 0)]
      (4): Parameter containing: [torch.cuda.FloatTensor of size 1x16 (GPU 0)]
…
